…
Found 372 images belonging to 3 classes.\
2022-07-04 01:39:05.767712: I tensorflow/core/platform/cpu_feature_guard.cc:193] This TensorFlow binary is optimized with oneAPI Deep Neural Network Library (oneDNN) to use the following CPU instructions in performance-critical operations:  AVX2 FMA\
To enable them in other operations, rebuild TensorFlow with the appropriate compiler flags.\
Model: "sequential"\
_________________________________________________________________\
 Layer (type)                Output Shape              Param #   \
=================================================================\
 conv2d (Conv2D)             (None, 148, 148, 64)      1792      \
                                                                 \
 max_pooling2d (MaxPooling2D  (None, 74, 74, 64)       0         \
 )                                                               \
                                                                 \
 conv2d_1 (Conv2D)           (None, 72, 72, 64)        36928     \
                                                                 \
 max_pooling2d_1 (MaxPooling  (None, 36, 36, 64)       0         \
 2D)                                                             \
                                                                 \
 conv2d_2 (Conv2D)           (None, 34, 34, 128)       73856     \
                                                                 \
 max_pooling2d_2 (MaxPooling  (None, 17, 17, 128)      0         \
 2D)                                                             \
                                                                 \
 conv2d_3 (Conv2D)           (None, 15, 15, 128)       147584    \
                                                                 \
 max_pooling2d_3 (MaxPooling  (None, 7, 7, 128)        0         \
 2D)                                                             \
                                                                 \
 flatten (Flatten)           (None, 6272)              0         \
                                                                 \
 dropout (Dropout)           (None, 6272)              0         \
                                                                 \
 dense (Dense)               (None, 512)               3211776   \
                                                                 \
 dense_1 (Dense)             (None, 3)                 1539      \
                                                                 \
=================================================================\
Total params: 3,473,475\
Trainable params: 3,473,475\
Non-trainable params: 0\
_________________________________________________________________\
Epoch 1/25\
20/20 [==============================] - 58s 3s/step - loss: 1.9256 - accuracy: 0.3583 - val_loss: 1.0942 - val_accuracy: 0.4677\
…
